model.safetensors (safetensors, 11048 bytes, 7 tensors)

embed.weight f4 [8, 32]
00000000: 4567 5ebd 1692 c83f 70f2 94bf 5616 dfbf
00000010: a6d5 893e a3a1 b7be 609e c03f 0cb1 aebe
00000020: f1b7 463f d4cd 0540 1fce 813e 4871 0ac0
00000030: 25db b43f 785f 963f 1e21 5c3c 2296 2440
00000040: 5b5e 693f c8fa 8a3f 2e0c 9fbf 7619 bb3d
00000050: 631c a13e fca0 0abf 0b99 5c3f 8f83 16bf
00000060: 120d 8f3f 85d6 b6be e397 e23d 0bb5 d8bf
00000070: f6dc 663e 743b 3f3e 7afa 92bf d473 80bf
00000080: ecf7 26bd ca22 69bf 07fe 3c3e 0fc7 9a3f
00000090: 5837 54bd b0fe b3be 9ff6 343d 0548 c7bf
000000a0: 4009 b2bd 4bb4 18bf 6751 54bf 1eb7 0240
000000b0: cfac 6ebf 2ea5 4dbf 1e32 ea3f ca0b 5b3f
000000c0: 001c 65be 1b12 debe d1e8 bc3e a016 6b3f
000000d0: 8f18 48bf c8e3 49bf fb88 02bf e86d f8bf
000000e0: c891 033f 9e49 30be b549 30bf cc9f 2e3f
000000f0: 1bd7 243f dc5a 14c0 561f 27bf 76bf 99bf
00000100: dc20 813f 7b61 543f 55a6 fdbf 1c3a d33e
00000110: 2d8f 48be 7371 24c0 e1d9 81be 265b e53f
00000120: 53ce 0bbe 7d07 27be 22b8 4f3f 8248 1d3f
00000130: d1d1 3340 38b0 bb3e 2aca d4be d047 c13f
00000140: 5905 203f ee2b 8cbe 03f5 943f 9ee5 26bf
00000150: 4a90 04be 45a9 6d3f 82de 1bc0 337c a8bf
00000160: 53b7 77bc 201a 4a40 be2f 8aba f4e5 163f
00000170: 9e40 edbf aff6 97bf 063c 8bbf 0adf 8d3f
00000180: 1e12 403d eb89 adbf 5d0c 0abf 91d9 093e
00000190: 05da f2bf 93cb af3e 8155 223f 8e34 e93e
000001a0: fa2b c4bf 279f 813e b6df 13bf 0d02 b2be
000001b0: c249 9dbf 872f 083f 756e 60bf d9f5 e13f
000001c0: 2a08 8abf 1ac0 a43f 78bb fbbf 5c6c 5a3e
000001d0: 7f8b b63e 9620 a43e e140 3a40 666d 03bf
000001e0: d57a 3dbf d43a adbe d10e b73f d7b0 4b3e
000001f0: fbb4 95bf f75e d13e c360 cb3f b027 1b3f
00000200: 0f75 d2be 21af b1bf 4658 38be ebcc a0bf
00000210: 2715 45be 6f7e f43e 47a2 24c0 ed5d d23e
00000220: d879 a7be 121d 9b3e eaa1 82bd 29a9 6bbf
00000230: 90d4 613f 9443 043f 0298 6d3e d187 3d3f
00000240: 55f0 61be 8455 b1bf c743 9ebf 9622 86be
00000250: 1766 34bf 900f 563f 75da 973f d949 d13e
00000260: 7cb1 42bf 5e9e 243f 33b2 ab3e 4c15 0ebd
00000270: 6cb2 acbd a092 d33f 4da9 f4be 2564 c8be
00000280: efa2 e1be da74 c5bc ef29 edbe bad1 dd3f
00000290: 0e32 f5bf 5352 973f 9949 f33f 0c8c f6be
000002a0: 9812 9b3f 89ee 803e 1d57 6e3f ab7b c43f
000002b0: bd81 33bf 4823 84bd 1f11 03c0 6889 acbf
000002c0: 48f1 04bf 5f97 bc3e 8e80 973e 5699 703e
000002d0: d376 86bf d634 c03f 7656 ecbf e46e a53f
000002e0: 605b 533f 28a5 04c0 e4c4 b6bf 22c5 9b3f
000002f0: 929c e73e 398e 85bf 9dde 56bf 4f5c 49bf
00000300: 8ed5 02be 12d4 aebf 8ab5 3f3f 7812 b7bf
00000310: d6d8 803f f6b9 5cbf b8ff 8f3d f6e2 ddbd
00000320: 368d cfbf 26b5 2940 4da2 d53f 0b9f 1140
00000330: 993a 5c3f ce8e f4bb f62b f8bd 2df1 803f
00000340: c3e8 cd3e da44 113f 50ef d13f ac1b 963f
00000350: d7f9 babf 95cd 3d40 97a9 943f 78a1 5fbf
00000360: c3ad 2bbf 0fe8 1d3f c13e 75bf 4067 193f
00000370: 214b 14bf b9c7 07bd 50da 2540 318b 4e3e
00000380: 6f73 2c40 b42d 5e3f b0a8 00c0 f10b a73e
00000390: 8e68 babf b01d b13e bb55 95bf c6b5 babf
000003a0: 19b0 87bf b15e 8d3f ef55 cebe a0e4 ba3f
000003b0: 029d 56bf 600a b23f 3dc2 683f 7d4c febf
000003c0: 16d3 56bf a79d b8bf 80fb 61bf 9a20 063f
000003d0: 7406 18be b6fc f2be f1ad 263f ec53 283f
000003e0: 9832 d03e c16c 783e 3664 e8bf 730b 6e3e
000003f0: 434c 43bf f181 a43f b9bf f63e 3d7f 14bf
-0.054297704 1.5669582 -1.1636486 -1.7428691 0.26920813 -0.35865507 1.5048332 -0.3411945
0.7762442 2.0906878 0.2535257 -2.1631641 1.4129378 1.1747885 0.01343563 2.5716634
0.911596 1.0857782 -1.2425592 0.09135716 0.3146697 -0.5415189 0.86171025 -0.5879449
1.1175864 -0.3571054 0.11064126 -1.693025 0.22545227 0.18675023 -1.1482689 -1.0035348
-0.04076378 -0.9106871 0.18456279 1.2091998 -0.051810592 -0.3515525 0.04418051 -1.5568854
-0.086931705 -0.59650105 -0.8293671 2.0424266 -0.93232435 -0.8033017 1.8296545 0.85564864
-0.22373962 -0.43373188 0.36896375 0.918314 -0.78162473 -0.7886319 -0.50990266 -1.9408541
0.5139432 -0.17215583 -0.6886247 0.6821258 0.64390725 -2.3180456 -0.6528219 -1.2011554
1.0088153 0.82961243 -1.9816386 0.4125527 -0.19585867 -2.5694244 -0.2536154 1.7918441
-0.13652925 -0.1631145 0.8114034 0.61438763 2.8096812 0.36657882 -0.4156049 1.510004
0.6250816 -0.27377266 1.1637272 -0.6519412 -0.12945667 0.9283641 -2.4354558 -1.3162903
-0.0151193915 3.1578445 -0.0010542793 0.5894463 -1.8535345 -1.1872157 -1.0877693 1.1083691
0.046892278 -1.3557714 -0.53925115 0.13461901 -1.8972784 0.34335002 0.6341172 0.4554791
-1.532592 0.25316736 -0.5776323 -0.3476719 -1.2288134 0.5319752 -0.87668544 1.7653152
-1.0783741 1.2871125 -1.9666586 0.21330398 0.35653302 0.3205611 2.91021 -0.51338804
-0.7401555 -0.33833945 1.4301397 0.19891678 -1.1695856 0.40892765 1.5888904 0.60607433
-0.41104934 -1.388157 -0.18002424 -1.2562536 -0.1924635 0.4775271 -2.5724046 0.41087285
-0.32710147 0.30295616 -0.06378539 -0.9205499 0.8821497 0.51665616 0.23202518 0.74035364
-0.22064336 -1.3854222 -1.2364434 -0.26198262 -0.70468277 0.83617496 1.1863543 0.40876654
-0.7605207 0.6430415 0.33534393 -0.03468828 -0.08432469 1.6529121 -0.47785416 -0.39138904
-0.4406962 -0.02410357 -0.46321055 1.7329628 -1.91559 1.1821998 1.9006835 -0.48153722
1.2115049 0.25181988 0.93101674 1.535024 -0.7011984 -0.06452042 -2.04792 -1.3479433
-0.51930666 0.36834237 0.29590267 0.23495993 -1.0505012 1.5016124 -1.8463886 1.2924466
0.825613 -2.0725803 -1.4278836 1.2169535 0.4523664 -1.0434028 -0.8393343 -0.78656477
-0.12776777 -1.3658469 0.7488638 -1.4302511 1.0066173 -0.86221254 0.07031196 -0.10834305
-1.6214969 2.6516814 1.6690155 2.2753322 0.8602691 -0.0074633127 -0.1211776 1.0073601
0.40216646 0.56745684 1.6401157 1.1727195 -1.4607495 2.9656727 1.1614255 -0.87355757
-0.67062014 0.6168222 -0.9579888 0.5992317 -0.5792714 -0.033149455 2.5914497 0.20170285
2.6945455 0.8678849 -2.0102959 0.32626298 -1.4563158 0.34592962 -1.1666788 -1.4586723
-1.0600616 1.1044523 -0.40299937 1.4601021 -0.83833325 1.3909416 0.90921384 -1.9867092
-0.8391584 -1.4423112 -0.88274384 0.52393496 -0.14846212 -0.47458428 0.65109164 0.65753055
0.406636 0.24260236 -1.8155582 0.23246555 -0.7628824 1.2852155 0.48193148 -0.5800665

fc.bias f4 [8]
00000000: 3972 81bc 40a9 f9bd bde0 0dbe 6808 80be
00000010: 9757 b43e dc57 363e 50f2 f93d 934c 4a3e
-0.015801536 -0.12190485 -0.13855262 -0.25006413 0.35223076 0.17806953 0.122044206 0.19755773

fc.weight f4 [8, 32]
00000000: cf8f dbbe ea2c 4f3e e749 ce3e fd5b 483e
00000010: d165 01bf bea8 abbe d253 e6be f59e a23e
00000020: f563 debe a218 aebe d210 a0be 4d67 51be
00000030: a351 75be 5a29 5abe 114b fdbe 6155 94be
00000040: a948 c7be 0037 82be e5c4 c6be 320e aabd
00000050: db12 afbe 35eb 50be e964 823d 1211 913e
00000060: 17cc 13bf b005 fb3d 584a b8be 217a 97be
00000070: 3c0e 26be a002 afbe 34de 383e a8bd 163e
00000080: c652 d13e 4a3b 8e3e 119f fa3e 3ece bdbe
00000090: 5e88 4b3e 20b3 eb3d 2b7c 9bbe 13d1 c43e
000000a0: 1104 e8be c26c c13e 5977 8e3e abf0 b8be
000000b0: b5eb d23e aed5 8b3e 048e 1d3e b3bc 3d3e
000000c0: c1c3 a63d 570b d9be a674 6d3e d2b1 bc3d
000000d0: baad a0be 51c9 fdbe 532c 8ebe f94e 043e
000000e0: 7c20 ed3e 867e d6be ed4b d33e 91b6 a23e
000000f0: 9477 0ebf ead8 ffbd 250d b1be 3d88 00bf
00000100: 6f35 d33d f776 dfbd b00c 093e c622 27be
00000110: e25b 6cbe 769e fb3c 5adb 213e 5cb5 9abe
00000120: 12f6 bb3b 6a23 d2ba e4e1 833d d99c 73be
00000130: 4050 d73b d39b 1c3e b232 29be fc3d 98bb
00000140: 99c9 883e e138 f93d 178f adbe ccdb b73e
00000150: ec50 f53d 42f9 d53d 4e8a 333e daa8 a3be
00000160: cff5 e23d 1cb6 67be ad41 f9bd 8419 aa3c
00000170: 559d 3bbe b220 9e3e 2c51 223e a615 173d
00000180: 51af cabd ae99 46bd 62cf f93d 4b84 d3bd
00000190: c941 96be a217 37bd a9fc 923d e918 6ebd
000001a0: c65a 10be 6c72 053e 5f14 673d 38a7 e23c
000001b0: 0b59 68bd 497f 8d3e 5207 92be 492e c8bd
000001c0: 5ff5 a93e 74c0 6e3e 89ac 73be b3e5 823e
000001d0: 6a58 1c3e c75d c5bc 20d0 6a3e e621 09bf
000001e0: f5d6 5a3e 0e8e a0be 63bc 8bbd 4617 0ebe
000001f0: c8de e9bc ee48 463e 0e7e ed3d 2d9e 91be
00000200: 3254 2a3d 3191 ccbe 3863 eabe a174 4fbe
00000210: 8a79 a33e 4c4c e7be 1283 b83e e2e2 633e
00000220: 4fe7 9d3e 20ac 513d 1f86 10bf 6cac ffbd
00000230: c9f5 de3e 1838 6a3e b697 dfbe 32b1 5dbe
00000240: bf0b edbe f291 bebe aad5 823e b59c 91be
00000250: 245a df3e 233c ce3e f68f 573e cd0d f7bd
00000260: 6bee eabe 95f8 e13e 5031 ed3e 21ad aa3e
00000270: 8014 c13e e94f 06be 5c0e b7be 692a a0bd
00000280: af28 e33e db0a d73e 2be1 94be 191e ab3e
00000290: bd35 833e a992 b53e e417 9cbe f775 983e
000002a0: d5df dc3e bd74 993e 0c7b b53e 867b bdbe
000002b0: dbf5 02bf 40c1 cbbe cda5 d13e f12d b33e
000002c0: 5d36 6a3d e69b cd3e 5fe4 d63e 3cfd 70be
000002d0: 91e1 40be 0891 2a3e 4736 dc3d 309f e9be
000002e0: 8bf2 cdbe 03fb 52be f3c7 68bd f2c1 5d3d
000002f0: f66a 623e b737 88be 4238 013f cb51 703e
00000300: b7ec 9ebe d0f4 523e 34af 04bf 6952 8f3e
00000310: 9871 b73e a022 aebe a496 303e ef7b eabe
00000320: 0fe3 23be f8ce 7dbe 97b7 c8be 1748 d83e
00000330: 1b06 bcbe 85b8 d9be 2d8b 81bc a613 82be
00000340: 51c5 b03e 5563 eebd 7551 01be b1e2 c83e
00000350: 9a67 bcbd e858 95be de49 0dbf 8569 8c3e
00000360: 7e23 de3e 0f1c 0b3e 4411 033f 089d 61be
00000370: 9a6c 6abe 9925 033f f29a a03e d88c c83e
00000380: c318 91be 5a1d a0be ced2 c9be 6661 cdbe
00000390: db19 0abf 3633 df3e a6b3 543e 2dad aebe
000003a0: 9b05 f63d 08bd 40be 5664 993e d272 623e
000003b0: 8ba3 d5bd af1e 813e aa72 ef3e 304d 733e
000003c0: ca43 e2be 64f0 6bbe a5dd 553e 8db8 85be
000003d0: 73d7 c3be afa3 a93e f424 6cbe 3033 c53e
000003e0: 9ff1 8a3e 0b6c 303d 8856 d0be ecb4 503d
000003f0: 1ca1 1a3e 48b7 b23e 9a4d 9dbe 05e4 aebe
-0.42883155 0.20231977 0.40290758 0.1956634 -0.50545985 -0.33527178 -0.44985825 0.317619
-0.43435636 -0.34003168 -0.31262833 -0.20449562 -0.23956923 -0.21304837 -0.49471334 -0.2897139
-0.38922623 -0.25432587 -0.38822094 -0.08303489 -0.34194073 -0.20402224 0.06366903 0.28333336
-0.5773329 0.12256944 -0.3599422 -0.29585364 -0.16216367 -0.3418169 0.18053514 0.14720786
0.40883464 0.2777961 0.48949483 -0.37071413 0.19876239 0.11508775 -0.3036817 0.3844076
-0.45315602 0.37778288 0.2782543 -0.36121115 0.41195455 0.27311462 0.15386206 0.18529014
0.08142806 -0.42391464 0.23189029 0.09213604 -0.31382543 -0.49567655 -0.27768192 0.1292075
0.46313846 -0.41893405 0.41268864 0.31779912 -0.5565121 -0.12492545 -0.3458034 -0.50207883
0.10312926 -0.109113626 0.13383746 -0.16321859 -0.23081926 0.030715209 0.15806332 -0.3021649
0.005736121 -0.0016032283 0.064395696 -0.23790301 0.006570846 0.15293817 -0.16523245 -0.004646061
0.26716307 0.12169052 -0.3389823 0.3590988 0.11978325 0.10447933 0.17533228 -0.3196476
0.110820405 -0.22628063 -0.1217073 0.02076412 -0.18321736 0.3088432 0.15851277 0.03688588
-0.0989672 -0.048486404 0.12197758 -0.10327967 -0.29347065 -0.044700272 0.07177097 -0.058129225
-0.14097127 0.1303193 0.05641591 0.027667627 -0.056725543 0.27636173 -0.2852121 -0.09774453
0.33195016 0.23315603 -0.23796286 0.25565872 0.15268102 -0.024092568 0.22930956 -0.5356735
0.21371062 -0.3135838 -0.06823041 -0.13876066 -0.028548613 0.19363758 0.11596309 -0.2844099
0.0415842 -0.39954522 -0.45778823 -0.20259334 0.31928664 -0.45175397 0.360375 0.22254518
0.30840537 0.05118954 -0.5645465 -0.12484059 0.43546894 0.2287296 -0.43670434 -0.21649626
-0.46298024 -0.37220722 0.25553638 -0.2843987 0.4362346 0.40280256 0.2105101 -0.12063179
-0.45885023 0.44134966 0.46326685 0.33335212 0.37710953 -0.13116421 -0.35753143 -0.07820589
0.44366977 0.4200047 -0.2907804 0.334214 0.25626937 0.35463455 -0.30486977 0.297775
0.4313952 0.29971877 0.3544544 -0.37008303 -0.51156396 -0.39795876 0.40946808 0.34995988
0.05718075 0.40158004 0.41971108 -0.23534101 -0.18836047 0.16656888 0.1075254 -0.45629263
-0.40224108 -0.20603566 -0.05683131 0.05414004 0.22111115 -0.26605007 0.5047647 0.23468702
-0.31039974 0.20601201 -0.5182984 0.2799256 0.35828853 -0.34010792 0.17244965 -0.4579768
-0.16004585 -0.24785984 -0.39202568 0.422425 -0.36723408 -0.4252359 -0.015813434 -0.25405616
0.3452554 -0.1164004 -0.1262873 0.39235452 -0.09199448 -0.29169393 -0.5519084 0.27424255
0.43386453 0.13584922 0.5119822 -0.22032559 -0.2289299 0.51229244 0.31368214 0.39169955
-0.28339204 -0.31272393 -0.39418644 -0.40113372 -0.539457 0.43593758 0.20771655 -0.34116498
0.12012788 -0.1882211 0.29959363 0.22114113 -0.10431584 0.25218722 0.4676717 0.23759913
-0.44192344 -0.2304092 0.20885332 -0.26117364 -0.38250312 0.33132693 -0.23060971 0.38515615
0.27137467 0.043071788 -0.40691018 0.05095379 0.15100521 0.34905457 -0.30723268 -0.3415834

rnn.bias_hh_l0 f4 [32]
00000000: d6b0 9b3d fda3 5bbe cdd0 73be 9717 f33a
00000010: 36c8 b63d 3bad 693c abeb ddbd 79e4 493e
00000020: 502a 9a3d 69aa e63d 3832 983d 663e 363c
00000030: 33b2 79bd c069 babd 89a9 c53d 15b8 a93d
00000040: 61ed e7bd f8d5 993d f8f3 ad3c 45d6 a63c
00000050: a764 11be e22c 8e3e 3fff 4ebc a86b 45bd
00000060: 9ecb 073c 8034 37b9 bab8 16bd fb21 c4bd
00000070: 4a20 0d3d 871b a4be 2c88 c1bd 29fc 8d3b
0.07602088 -0.21449275 -0.2381012 0.0018546459 0.08924906 0.014262493 -0.10835966 0.19716062
0.07527602 0.11262972 0.074314535 0.011123275 -0.06096096 -0.091022015 0.09651477 0.08287064
-0.11324573 0.075115144 0.021234497 0.020365844 -0.14198552 0.27768618 -0.012634098 -0.048198372
0.008288292 -0.00017471798 -0.036797263 -0.09576794 0.03445462 -0.32052252 -0.09449801 0.0043330383

rnn.bias_ih_l0 f4 [32]
00000000: 67fb 013e 6a14 a93d 06f9 88be 6367 4bbd
00000010: 8736 473e 410a 0ebe 4c02 4e3c 3e9f 143c
00000020: 2052 9e3d ed1f 72bd fab7 293c 028d adbd
00000030: 0775 9e3d d49c 013e ace7 893e 5d42 013e
00000040: 2cbd 55be d56f 09be d4d0 4f3e 2b8a 0fbe
00000050: 7b98 dd3c f779 a73d 81d1 6abd 5a3e 5f3e
00000060: 6a01 8fbc 7ec7 813e f42b 043b 55f7 a93d
00000070: 0197 eebd 7174 66bd 4df1 df3d eebe e93c
0.12693559 0.08255847 -0.2675249 -0.049659144 0.19454394 -0.13871099 0.01257379 0.009071169
0.07730508 -0.059112478 0.010358805 -0.08474161 0.07737165 0.12657481 0.26934564 0.12622972
-0.20872945 -0.13421567 0.20294505 -0.1401755 0.027050247 0.0817756 -0.057328705 0.21801129
-0.017456729 0.25347513 0.00201678 0.08299128 -0.116498955 -0.05626339 0.10934696 0.028533425

rnn.weight_hh_l0 f4 [32, 32]
00000000: 2464 1abe bd76 15be 8961 bfbc 51ed 4c3c
00000010: 4800 2f3e 353b 933e 3f7e e8b9 f3a4 1ebe
00000020: 131a 273e d699 d4bc b124 4b3d 9452 573d
00000030: 7595 903d 6163 b53c 0792 333d b00c d53d
00000040: 7698 23be 4de4 b23d be5e e5bc 4c82 9ebe
00000050: 78fa 983e 6e65 083e fefd 79bd 2b32 33be
00000060: ebe9 4c3d 07f7 933c b85b 363d b6eb 4e3e
00000070: 49d9 fe3d 40d9 923e aac9 18be 0181 86be
00000080: 5ad8 1b3d e990 1abe 8604 c43d f644 1dbe
00000090: 88e9 a03e 8c6c 0f3c 30da 69bc 36a5 93be
000000a0: b296 913e ede4 1abd a286 793e dc77 fcbd
000000b0: 9521 613e 0cb9 d23d 696d 4c3e f5f4 913b
000000c0: 2fbd 343e bd40 68be 790c f33c 5558 3dbe
000000d0: 4617 72be b16c 603e 8077 593b e70b 9f3d
000000e0: add3 58be b609 163d 59a0 2d3e 238d 0cbe
000000f0: addc 153e 22a5 a3be 021e b0be 06b4 c4bd
00000100: 2a02 43be fc51 c0bd 09cc b93e 52ac ca3e
00000110: cf3a 623e 19d0 c2be 4c61 dd3d 4e99 cc3e
00000120: 5250 a4bc f495 1fbe 8b17 dd3d ed6e 0fbe
00000130: 89ff 1c3e ebeb 093e c020 913e e931 19be
00000140: d801 363e 7b35 3a3e b405 4fbe 5807 bdbd
00000150: 1f7a efbd ad09 833e bebb 0fbd 5a97 afbd
00000160: 4c4c acbd 6af8 e7bd e649 953e 77bc 923e
00000170: 3b6e a73d 2733 27bd 5d78 01be 2ac7 90be
00000180: 3855 953e 2013 4abb 45bf e73d 6b90 8fbe
00000190: 6719 9a3d 8ed6 6c3e acb9 16bd c0da 61be
000001a0: 8367 fd3c 0570 ca3e cdba e73e 66e4 79be
000001b0: bcc4 653d 427b 4a3e dbf8 94bd 3df9 10be
000001c0: ef25 5e3e cb9d c3be 032e a13d ffa8 063d
000001d0: fccb 79be 088c 5f3e b15b e73c d87d 793e
000001e0: d87e 9fbe 75fb bcbc c902 35be b24b 563c
000001f0: 5eab 2d3e 9972 8abe 46c1 903e b5ad ac3e
00000200: 52a5 5abe af0c 71bd dae8 c8be 1b51 cabe
00000210: faba 103e c7d5 d13d 3a8b d73d a9f7 7abe
00000220: d020 2f3e 6e02 083e 6b7b 80be 9a44 af3d
00000230: 5ed4 01be e743 b3be c873 643d e148 3f3e
00000240: c926 8fbe ec11 9dbc 7183 bc3c ee9e 943d
00000250: 1652 953e 64b9 3fbe 69fd bb3e b80f 13be
00000260: 3a5c 25bd 5ed6 de3e 3f75 84bc a3e6 05be
00000270: 82bc a03e d2d2 eb3d a2a5 ec3d 9091 783e
00000280: da3f 6bbe b7ea b1be 5e93 1e3e d09c 14be
00000290: fe35 b6be 33ec 3a3e 7630 d23e 5741 b5bd
000002a0: 4915 793e 49df ec3c bc2b db3d 3a80 2d3e
000002b0: 565f 623d d955 843e b19c 55be e339 a4bd
000002c0: 3741 11be 404f 90be b8bf 39be af23 5d3e
000002d0: 1e28 fa3d c7a6 553e e2e5 7bbe ad82 253e
000002e0: 440b 983c 299a ad3e 0eec 34be 0dce c3bd
000002f0: 6429 403e 3273 8f3e 7524 943b a7d3 c73c
00000300: 628f adbd 862c a13e 80c9 9bbe de30 d43c
00000310: 9291 99be b9f6 c13e 48cb 4bbe c17b 183e
00000320: 08f4 0c3d d9aa 103e a0c6 6ebd cf6a 463e
00000330: f329 33be 839c 87be 5c6d 57be ddeb 803d
00000340: e6bc b2be 21d0 8e3e 4a33 d9bd 5bb6 3b3c
00000350: b85d dc3e c293 46be 524b e83e cac2 20be
00000360: 0757 0e3e 82f5 0f3e 9eb4 b9be 80a3 a0be
00000370: bca3 6fbe b8c2 493e ebaf 073e 724e bf3d
00000380: 1360 33bc f95d e1bd 8850 f33d 0e95 b63e
00000390: b6d5 863e fc7d f2bd f1d2 5dbe e2ca e5bd
000003a0: 38ac 60bd 1cf5 74be 59e3 f73d 19ff 64be
000003b0: 9a4b 953e a60c cc3d 29d3 c63e 07e8 c6be
000003c0: 5bec 6b3e 333a 0e3d 5d1f 95bc 2950 a93c
000003d0: 61c8 acbd be58 1b3e 4ed2 a7be df07 f23d
000003e0: e41b 57be 6199 91be 6077 623e 20cc c93e
000003f0: fe48 003d 9dae 8dbe f9b8 a1be c6c0 67be
-0.15077263 -0.14596076 -0.023361938 0.0125077525 0.17089951 0.2875611 -0.0004434455 -0.1549261
0.1631854 -0.025952261 0.04959554 0.052568987 0.07059757 0.022142114 0.043840434 0.104028106
-0.15976128 0.08734951 -0.027999278 -0.30958784 0.29878592 0.13319942 -0.06103324 -0.17499606
0.05002777 0.018062128 0.044521064 0.20207104 0.124437876 0.28681374 -0.14920679 -0.26270297
0.038048126 -0.15094341 0.09571175 -0.15358338 0.3142817 0.008753907 -0.014273211 -0.28836983
0.28435284 -0.037815977 0.24367765 -0.12327549 0.21985467 0.10289201 0.19963612 0.00445425
0.17650293 -0.22680946 0.029669033 -0.18490727 -0.2364169 0.21916462 0.00331828 0.07765942
-0.21174498 0.036630355 0.16955699 -0.13725714 0.14634962 -0.31961924 -0.34397894 -0.09604649
-0.19043794 -0.09390637 0.3628848 0.39584595 0.22092746 -0.3804939 0.108095735 0.39960712
-0.020057831 -0.15584546 0.10795506 -0.14007159 0.15331854 0.13468902 0.283453 -0.14960445
0.17774141 0.18184464 -0.2021702 -0.09229916 -0.116932146 0.2559332 -0.035091154 -0.0857379
-0.0841299 -0.11326678 0.29157943 0.28659412 0.08175322 -0.040820267 -0.12643571 -0.2827695
0.2916658 -0.0030834153 0.11315779 -0.2803987 0.07524376 0.23128721 -0.036798164 -0.22056103
0.030933147 0.3953859 0.45259705 -0.24403533 0.056095824 0.19773582 -0.07274028 -0.14157577
0.21694158 -0.38206324 0.07870104 0.03287601 -0.2439422 0.21830761 0.028241964 0.24364412
-0.31151462 -0.023069123 -0.17676844 0.013079571 0.16959903 -0.27040556 0.28272456 0.33726278
-0.21352127 -0.058849987 -0.39240152 -0.39515004 0.14133826 0.10245853 0.10524602 -0.24508537
0.1710236 0.13282177 -0.2509416 0.085580066 -0.12678668 -0.35012743 0.05577448 0.18680145
-0.27959278 -0.019173585 0.023011895 0.07256876 0.2916419 -0.18723065 0.36716774 -0.14361465
-0.040371157 0.43522924 -0.016169189 -0.13076262 0.3139382 0.1151482 0.115550295 0.24274278
-0.22973576 -0.34749386 0.15485904 -0.14512944 -0.35588068 0.18254165 0.41052598 -0.08850353
0.24324526 0.028915064 0.10701701 0.16943446 0.0552667 0.25846747 -0.20860554 -0.080188535
-0.14185034 -0.28185463 -0.18139541 0.21595643 0.12214683 0.20864402 -0.24599412 0.1616313
0.01856006 0.33906677 -0.17668173 -0.095607854 0.1876579 0.28017575 0.0045209476 0.024392916
-0.08474614 0.3147928 -0.3042717 0.025902208 -0.29993874 0.37883547 -0.19901764 0.14890958
0.034412414 0.14127673 -0.058294892 0.19376682 -0.17496471 -0.26486596 -0.21037811 0.06294987
-0.34909743 0.27893165 -0.10605486 0.011457051 0.43040252 -0.19392303 0.45369965 -0.15699306
0.13900386 0.14058498 -0.36270612 -0.3137474 -0.23402303 0.19703186 0.13250701 0.09341134
-0.010948199 -0.11004252 0.118805945 0.35660595 0.26334924 -0.11840436 -0.21662499 -0.112203375
-0.05485174 -0.23921627 0.1210391 -0.22362937 0.29159242 0.0996335 0.38832977 -0.38848898
0.23039381 0.03472347 -0.018203432 0.020668106 -0.08436657 0.15170571 -0.32777637 0.118179075
-0.21006733 -0.2843733 0.2211585 0.39413548 0.03131961 -0.27672282 -0.31586435 -0.22632131

rnn.weight_ih_l0 f4 [32, 32]
00000000: c3f7 843e d986 16be 376b 16be f50a abbd
00000010: 9ba5 3c3e 83cf ac3d 169b a2be 905d 6b3d
00000020: 0a3f 9dbe 00ce 80be 2d1e 2bbd 7db1 99be
00000030: 0e79 09be 3bab 473e 7492 883e 7b34 203c
00000040: e56f ebbd 8134 76be 3bfe 1ebe c697 dbbd
00000050: 692e 363d 2075 dbbc f6ff 6d3c 11f0 393d
00000060: 2b6c 89be 7285 793c fc25 723e 96f1 c3bc
00000070: 9edf 02be 036a 2b3d c314 7c3d bdf7 0e3e
00000080: bb81 ac3d a187 4a3b 2e7b cebd f87d 833e
00000090: a026 8abe ba8b 15bd 9ef3 f7bd e22b 4abe
000000a0: 8e5e 5d3e d095 5ebe 2d14 d9bd 1240 333e
000000b0: d147 303d 5a3d 0e3e bb10 c63d b99a 8cbd
000000c0: 8109 0cbe 033f 51be 9506 c2bd 02da 333c
000000d0: 254d 9dbc 143f 423d e89f cfbd 02ce 873e
000000e0: 51f7 8e3e 0486 81bc dc12 ccbd 3708 343e
000000f0: 4643 34bd f123 cc3d e76e e3bd c941 c13c
00000100: e9a4 78be c4a0 fbbd 2c62 a13e 2a11 843e
00000110: cf01 ed3d 610d e63c 6f84 5bbe d693 51bc
00000120: bd2e 013e fb3f febd aa1d bfbe 35e7 7fbd
00000130: 74a4 93be 270f 92be 2b98 27be 2d8e 27be
00000140: b19a 27be c54a 9d3d 159a 923c f93c 55bd
00000150: 12df e3bd c03d 37be 9e1d ad3d 1859 dfbd
00000160: cfed c7bd e71f 28bd 8cd4 883e f363 ec3d
00000170: 1edd 2c3d 5f00 babb 75f3 363e 8011 403e
00000180: 7743 aebc 2b39 5abe 78e6 b0bd c591 80bd
00000190: 7865 9a3d b39c 633e 48fe 97bd 6a73 82bd
000001a0: 0db6 123d bed0 eebd 1f8d ddbd d720 893e
000001b0: 7a58 96be 2ca6 0cbe c78e 62bd 2563 bbbd
000001c0: 136e dabd b9ba 42be d3b6 233e 50aa 513e
000001d0: b919 8cbe d496 733e ee55 6f3d 87eb 853e
000001e0: 3970 59be 73f4 b0bd 4bb2 7bbe de9f b93b
000001f0: 3213 b33d 45a8 d5bd d4af 363d e04f 33be
00000200: f635 c43d 6348 91be 0745 323e c213 83bd
00000210: 82ed 9abb c96c fe3d 9e22 6fbe e325 9abe
00000220: 9e4e 3dbd 614b 3c3e 4685 b7bc daee c63c
00000230: f1ff 09be cead fabd fcd0 91bc 689c 38be
00000240: 97b6 94be d95c 56be 17a4 cbbd fa57 8c3e
00000250: 9db8 7dbe 7307 06bc d4b9 183e 52a9 393e
00000260: 9ba4 a2be 2109 093d a409 0ebd e66f 1a3e
00000270: 8d92 d5bc 1f0b b33d dd44 033e 0902 27be
00000280: e373 903e 1efb 743d 5d41 8cbd 9b8c 1fbe
00000290: a157 bfbd 8840 92be f90f 643d 09f3 22be
000002a0: 3639 1e3e 2829 bb3d 6f42 86bc 62ca 74be
000002b0: 0a3c 2d3d 47c2 2a3e 7f54 123e 1f69 e83d
000002c0: 6a3d 413e e863 c63d 2f48 88be a60d 3fbe
000002d0: d177 2c3e e547 93be c009 e6bd e9c0 8b3c
000002e0: abf4 fe3d 5394 253d 1d2c eabd 9f6f 37be
000002f0: 892a 46be ade3 01bd c26f b1be 85c7 08bd
00000300: 3a14 c4bd f922 1ebe 44d5 1e3e b145 b1bd
00000310: 5efd ee3d f705 38be df12 7a3e 0100 9d3d
00000320: da80 f63d 5956 853e 23a3 333e 2249 f03d
00000330: e204 943e bb3c b7bd 52e4 773d 1683 323e
00000340: 8409 753e d44c 313e b46f 1e3d cb58 2f3e
00000350: c62e ae3b 80a4 c63d 00b3 0fbe a55c d6bc
00000360: c801 b7bd 7bac 07bd 0d4d 0dbe 7a20 20bd
00000370: 0a1a d7bc a6b4 203d d929 fd3b f426 91bb
00000380: c263 813e 6bae cebe c00c 12bd 7151 cfbd
00000390: 46aa 30bd 7bf1 9ebe c63f 2ebe efb0 303e
000003a0: 0fe4 a2be 838f 05bb 507e 413e 17f4 253e
000003b0: ac4d a73e bf34 7f3e 0da3 48bd f8f3 44be
000003c0: 76f8 55be 815b 5fbe 81ff 2e3e c639 263e
000003d0: b49e 62bd 61c1 7d3e 0ca6 06bd cbe7 bfbc
000003e0: ce68 9abe 55b1 2f3e c60c 1ebe cf31 cb3d
000003f0: 2c62 37be d5c1 3d3e 39e1 7a3e 3f77 563e
0.25970277 -0.14699878 -0.14689337 -0.08351699 0.18422548 0.08438017 -0.31758946 0.057462275
-0.30712157 -0.25157166 -0.041776825 -0.30018225 -0.13425085 0.19498913 0.26674235 0.009778137
-0.114959516 -0.24043466 -0.15526669 -0.10722308 0.044477854 -0.026789248 0.014526358 0.04539496
-0.26840338 0.01522957 0.23647302 -0.023918908 -0.12780616 0.041849148 0.061543237 0.13961692
0.084231816 0.0030903595 -0.100820884 0.25682044 -0.26982594 -0.036510207 -0.12107013 -0.19743302
0.21618101 -0.21736836 -0.10599551 0.1750491 0.04303724 0.13890591 0.0967116 -0.068654485
-0.136755 -0.20434193 -0.09473912 0.01097727 -0.019201824 0.047423437 -0.101379216 0.2652436
0.27923062 -0.015810974 -0.09964535 0.17581259 -0.04400947 0.09967793 -0.11105137 0.02359094
-0.24281658 -0.12286523 0.31520212 0.25794345 0.115726106 0.028082551 -0.21437238 -0.0127915945
0.12615485 -0.12414547 -0.3732732 -0.062476356 -0.28836405 -0.28527185 -0.16366641 -0.1636283
-0.16367604 0.07680277 0.017895738 -0.0520601 -0.11126532 -0.1789465 0.08452915 -0.10905665
-0.09762155 -0.04104605 0.2672466 0.11542501 0.04220306 -0.005676314 0.17866309 0.18756676
-0.021272404 -0.2131087 -0.086377084 -0.06277803 0.07538885 0.22227745 -0.07421547 -0.0636967
0.03581815 -0.11660908 -0.10817932 0.26782867 -0.29364377 -0.13735265 -0.055311944 -0.0914977
-0.10665526 -0.19016542 0.1598771 0.20475125 -0.27363375 0.23788005 0.05843156 0.26156256
-0.21234216 -0.08640375 -0.24579732 0.0056648096 0.087438956 -0.104324855 0.044601277 -0.17510939
0.09580605 -0.2837554 0.17409144 -0.06400253 -0.00472802 0.12423093 -0.23353049 -0.3010703
-0.046217553 0.1838813 -0.022402417 0.024283815 -0.1347654 -0.12240182 -0.017799847 -0.18028414
-0.29045555 -0.20933856 -0.09943407 0.2741087 -0.24777456 -0.008180487 0.14914638 0.18130997
-0.3176621 0.03345597 -0.034677163 0.15081748 -0.026070857 0.087423556 0.12819238 -0.1630937
0.28213415 0.059809797 -0.068484046 -0.1558098 -0.09342886 -0.28564858 0.055679295 -0.15913023
0.15451512 0.09138709 -0.0163891 -0.23905328 0.042293586 0.16675673 0.14290045 0.11348175
0.18871084 0.09687024 -0.26617572 -0.1865755 0.16842581 -0.2876579 -0.112323284 0.01705976
0.124490105 0.040424656 -0.11434195 -0.17913674 -0.19352163 -0.03171127 -0.34655577 -0.0333934
-0.095741704 -0.15443029 0.15511042 -0.08655871 0.1166942 -0.17971025 0.24421261 0.07666016
0.12036295 0.2604244 0.175427 0.11732699 0.28909975 -0.0894713 0.060520478 0.17432818
0.23929411 0.17314464 0.038680747 0.17123716 0.0053156344 0.09699345 -0.14033127 -0.026167223
-0.089358866 -0.033123475 -0.13798924 -0.039093472 -0.026257534 0.03923478 0.007725936 -0.0044296924
0.25271422 -0.40367445 -0.03565669 -0.101229556 -0.043131135 -0.3104361 -0.17016515 0.17254995
-0.3181462 -0.002037973 0.1889584 0.16206394 0.32676446 0.24922465 -0.048983622 -0.19233692
-0.20895562 -0.2181225 0.17089655 0.16232976 -0.055327132 0.247808 -0.0328732 -0.023425957
-0.30158085 0.1715749 -0.1543456 0.099216096 -0.17908543 0.18530972 0.24499978 0.20943926
